test/trained_models/base/problem_test_image_classification/prototype/model.pth.tar (torch_old, 454175 bytes, 24 tensors)

encoder.0.0.weight f4 [64, 1, 3, 3]
0.1829907 -0.042072445 0.012727171 0.077234894 0.2067922 0.3200647 -0.25687453 -0.12215659
0.13100329 0.27618316 0.29006913 0.2941189 0.06633818 -0.2898609 0.030664176 -0.20853512
-0.3106514 0.29616418 0.25345328 -0.33250934 0.062390685 -0.056153327 -0.054853708 -0.15258563
0.12818539 -0.19743451 0.12219712 0.16856936 0.23862389 0.12463704 -0.32991177 -0.2162323
0.16643834 0.06976712 -0.260028 -0.19193983 0.3135831 0.22460595 -0.14534172 -0.08389494
-0.31753272 -0.0059913695 -0.25101966 -0.2571189 -0.018366545 0.05004835 -0.1365101 0.19779256
-0.20284638 0.3024567 0.22843328 -0.2810943 -0.08296144 0.0150408745 0.048633695 0.07905808
0.13080943 0.019966722 -0.16264293 0.15772966 -0.31974965 -0.1975689 -0.083443284 -0.16237113
-0.11661112 -0.27320725 -0.07090506 0.07125214 -0.21715526 -0.017106444 0.23861697 -0.03426674
0.009264082 -0.02875629 0.06746045 0.21194652 0.31574872 0.21168533 0.3164712 -0.024107218
-0.2994405 -0.15802574 0.22696844 -0.0021608174 -0.16568212 -0.25543725 -0.31195068 -0.28133607
-0.06761226 0.18280199 0.18021372 -0.3214773 0.20792738 -0.26083648 -0.070470095 -0.13515756
-0.06420508 -0.06544757 -0.29911667 -0.28781265 -0.052159816 0.004310727 -0.15142497 0.1255664
-0.30001947 -0.022495747 0.29313985 -0.135964 0.30100104 0.12071791 -0.30082032 0.21089914
-0.038464814 -0.14880228 0.2665511 -0.26936507 0.0357683 -0.06978956 0.23803756 0.093048185
0.16016844 0.11771965 -0.08015823 -0.07010183 -0.27469382 0.18061474 0.26465937 0.22807494
-0.23512611 0.01486662 -0.23497805 -0.18349473 -0.19423518 0.113915 -0.19863772 -0.0072723925
0.014022708 0.21487436 -0.25197336 -0.22883742 -0.19355385 0.23331115 -0.11982167 0.2811629
0.12053585 0.04220867 -0.0024813414 -0.06589386 0.041822106 -0.07611489 -0.0023421347 0.042531013
-0.26073503 -0.17471048 0.26916423 -0.27051556 -0.023935407 0.32974628 0.12041235 0.00943768
-0.28886998 0.16512597 -0.23742692 -0.09462142 -0.11183879 -0.04936245 0.0036461055 0.27493587
0.041612953 0.29856429 0.20390418 -0.21073799 0.14950135 -0.23563203 -0.14127505 0.09804091
0.11006403 0.25007603 -0.10730529 0.0005336106 0.17160788 -0.32236406 0.24099353 -0.27564082
0.004594177 -0.056672245 -0.17555766 0.04405701 0.27563956 -0.097439855 -0.19789803 -0.123279616
-0.3303828 0.15046465 -0.16008791 -0.22244677 -0.19203381 0.19165203 0.17652455 0.25584063
0.120907694 -0.1113199 -0.093149394 0.09847665 0.27401158 0.09063074 -0.15771513 -0.15669248
-0.31515634 0.072016 -0.18706083 -0.29719195 0.29229215 -0.2164704 -0.037920505 0.09549785
0.010619432 -0.22429392 -0.2694406 0.26569417 0.054279566 0.2765415 -0.11174688 0.09818515
-0.0762254 -0.014823705 -0.20301473 0.11273363 0.10538864 -0.0068762004 -0.074967384 -0.20547661
0.23051491 -0.24814138 0.13655517 -0.11208451 -0.16082267 0.059881687 -0.17315233 0.07680163
0.065460294 -0.24749649 0.055499524 0.14197639 0.13194367 -0.041959554 -0.27326256 -0.051384687
0.11576924 -0.12162571 0.12652704 0.22198752 -0.17405054 0.0032872856 0.137833 0.026125938
00000000: ea61 3b3e 2854 2cbd a085 503c 542d 9e3d
00000010: 56c1 533e 85df a33e 0f85 83be 3c2d fabd
00000020: ba25 063e e167 8d3e f183 943e c196 963e
00000030: 50dc 873d a668 94be 7033 fb3c 3b8a 55be
00000040: b30d 9fbe d5a2 973e a1c4 813e aa3e aabe
00000050: 608d 7f3d 0801 66bd 48ae 60bd 683f 1cbe
00000060: 0843 033e 462c 4abe 7c42 fa3d 729d 2c3e
00000070: d259 743e b441 ff3d 32ea a8be 006c 5dbe
00000080: d06e 2a3e 10e2 8e3d 6422 85be e08b 44be
00000090: f78d a03e 1aff 653e 76d4 14be 1cd1 abbd
000000a0: a693 a2be 4053 c4bb a685 80be 17a5 83be
000000b0: 7075 96bc 80ff 4c3d 4ec9 0bbe 228a 4a3e
000000c0: f6b6 4fbe 9bdb 9a3e 6aea 693e 98eb 8fbe
000000d0: b0e7 a9bd 006e 763c 2034 473d 34e9 a13d
000000e0: e8f2 053e 4091 a33c de8b 26be e283 213e
000000f0: 3ab6 a3be 804f 4abe 50e4 aabd 9e44 26be
00000100: d0d1 eebd d2e1 8bbe ac36 91bd a4ec 913d
00000110: f35d 5ebe d022 8cbc 0258 743e 485b 0cbd
00000120: 60c8 173c 5092 ebbc b428 8a3d 8208 593e
00000130: d1a9 a13e 0ac4 583e 8308 a23e 807c c5bc
00000140: 4450 99be 80d1 21be 6a6a 683e 809c 0dbb
00000150: 93a8 29be acc8 82be 00b8 9fbe 480b 90be
00000160: 4c78 8abd 7230 3b3e f289 383e ac98 a4be
00000170: eaea 543e 5c8c 85be a052 90bd be66 0abe
00000180: f47d 83bd 6009 86bd d225 99be 2e5c 93be
00000190: 88a5 55bd 0041 8d3b 260f 1bbe 7a94 003e
000001a0: 279c 99be 0049 b8bc 6d16 963e 263a 0bbe
000001b0: cf1c 9a3e f43a f73d 1f05 9abe f2f5 573e
000001c0: 488d 1dbd a05f 18be 6379 883e 38ea 89be
000001d0: c881 123d d4ed 8ebd 1ec0 733e 0c90 be3d
000001e0: 3203 243e 0017 f13d 002a a4bd 8c91 8fbd
000001f0: aba4 8cbe 12f3 383e 6f81 873e 7a8c 693e
00000200: e6c4 70be 2093 733c 169e 70be 0be6 3bbe
00000210: 96e5 46be 444c e93d b067 4bbe 404d eebb
00000220: 80bf 653c 0608 5c3e a702 81be 5b54 6abe
00000230: fb32 46be 1ee9 6e3e 1065 f5bd 95f4 8f3e
00000240: 80db f63d 00e3 2c3d 009e 22bb 5cf3 86bd
00000250: a84d 2b3d 20e2 9bbd 807e 19bb 0035 2e3d
00000260: 107f 85be 4ee7 32be e5cf 893e 0481 8abe
00000270: 3014 c4bc 81d4 a83e c09a f63d 80a0 1a3c
00000280: c4e6 93be c816 293e 0b20 73be e0c8 c1bd
00000290: bc0b e5bd 4830 4abd 80f3 6e3b 65c4 8c3e
000002a0: 5872 2a3d 6bdd 983e 42cc 503e b3cb 57be
000002b0: e216 193e 8649 71be 68aa 10be acc9 c83d
000002c0: 4069 e13d f709 803e e0c2 dbbd 00e2 0b3a
000002d0: fab9 2f3e e70c a5be 02c7 763e cb20 8dbe
000002e0: c08a 963b 2821 68bd 63c5 33be 2075 343d
000002f0: a120 8d3e 8c8e c7bd c8a5 4abe 067a fcbd
00000300: ef27 a9be 6813 1a3e 16ee 23be 16c9 63be
00000310: 83a4 44be 6e40 443e dac2 343e 8bfd 823e
00000320: 749e f73d b0fb e3bd 1cc5 bebd 20ae c93d
00000330: 3f4b 8c3e 9c9c b93d 1380 21be fe73 20be
00000340: 2c5c a1be 207d 933d e08c 3fbe 8b29 98be
00000350: 51a7 953e 6baa 5dbe 8852 1bbd 6094 c33d
00000360: 20fd 2d3c 4ead 65be 1ef4 89be 1109 883e
00000370: 4054 5e3d d996 8d3e 8cdb e4bd 4c15 c93d
00000380: 101c 9cbd 20df 72bc 18e3 4fbe e4e0 e63d
00000390: 00d6 d73d c051 e1bb 8088 99bd 7668 52be
000003a0: 1a0c 6c3e c618 7ebe 1ed5 0b3e 908c e5bd
000003b0: b3ae 24be 8046 753d d84e 31be 2c4a 9d3d
000003c0: 0c10 863d b86f 7dbe 7853 633d 4262 113e
000003d0: 3e1c 073e c8dd 2bbd 12e9 8bbe c078 52bd
000003e0: 6c18 ed3d e616 f9bd 4e90 013e b250 633e
000003f0: 4e3a 32be 806f 573b 1824 0d3e 1006 d63c

encoder.0.0.bias f4 [64]
-0.19737113 0.047822148 0.10639715 0.023601294 -0.21611659 0.31877616 -0.19383316 0.27416685
-0.26516944 -0.08018282 0.18132296 -0.13619356 0.2800143 -0.2293855 -0.27992386 -0.15030639
0.053883463 0.30691865 -0.15913364 0.11920941 -0.08356902 -0.07228744 0.24510112 -0.25832865
0.035404444 0.31346974 -0.045804054 0.2588127 -0.10265228 0.2683207 -0.32244346 -0.048041224
-0.058548808 0.10802832 0.13077581 0.25593898 -0.049661994 -0.013218373 0.22827044 -0.09019105
0.2922112 -0.22193739 -0.03606996 -0.017903656 0.14873663 0.22789207 -0.0528346 -0.2761602
0.16516408 0.09971058 0.13389978 -0.20562255 0.21453187 0.31571832 0.02892378 -0.31134948
0.23399666 -0.24715042 0.076624036 0.048439264 -0.15601218 0.116065174 -0.29814422 0.07591984
00000000: a81b 4abe 28e1 433d c0e6 d93d 8057 c13c
00000010: ab4d 5dbe a136 a33e 337c 46be 995f 8c3e
00000020: 4ac4 87be e436 a4bd baac 393e 5376 0bbe
00000030: 095e 8f3e 08e4 6abe 2e52 8fbe ebe9 19be
00000040: e8b4 5c3d 7124 9d3e eef3 22be 1024 f43d
00000050: 3c26 abbd 700b 94bd cafb 7a3e a743 84be
00000060: 4004 113d 1b7f a03e 089d 3bbd 1983 843e
00000070: 5c3b d2bd 5561 893e 4f17 a5be e0c6 44bd
00000080: e0d0 6fbd f43d dd3d 18ea 053e 6f0a 833e
00000090: 606a 4bbd e091 58bc babf 693e 16b6 b8bd
000000a0: b59c 953e 8e43 63be 18be 13bd b0aa 92bc
000000b0: 6a4e 183e 8a5c 693e 1869 58bd df64 8dbe
000000c0: c620 293e 1035 cc3d 061d 093e b88e 52be
000000d0: 3eae 5b3e d5a5 a13e 90f1 ec3c 3369 9fbe
000000e0: d29c 6f3e 0015 7dbe 10ed 9c3d 4068 463d
000000f0: a8c1 1fbe 94b3 ed3d 5ca6 98be dc7b 9b3d

encoder.0.1.weight f4 [64]
0.4962566 0.7682218 0.08847743 0.13203049 0.30742282 0.6340787 0.4900934 0.89644474
0.45562798 0.6323063 0.34889346 0.4017173 0.022325754 0.16885895 0.29388845 0.5185218
0.6976676 0.8000114 0.16102946 0.28226858 0.68160856 0.915194 0.3970999 0.8741559
0.41940832 0.55290705 0.9527381 0.03616482 0.18523103 0.37341738 0.30510002 0.9320004
0.17591017 0.26983356 0.15067977 0.031719506 0.20812976 0.929799 0.7231092 0.7423363
0.5262958 0.24365824 0.58459234 0.03315264 0.13871688 0.242235 0.81546897 0.7931606
0.27825248 0.4819588 0.81978035 0.99706656 0.6984411 0.5675464 0.83524317 0.20559883
0.593172 0.112347245 0.15345693 0.24170822 0.7262365 0.7010802 0.20382375 0.65105355
00000000: 5815 fe3e 2faa 443f a833 b53d 0033 073e
00000010: 8666 9d3e fb52 223f 86ed fa3e 677d 653f
00000020: 1248 e93e d3de 213f 2aa2 b23e e4ad cd3e
00000030: 80e4 b63c 5ce9 2c3e 8c78 963e d8bd 043f
00000040: 589a 323f 8ccd 4c3f e8e4 243e 8285 903e
00000050: e67d 2e3f 274a 6a3f ae50 cb3e aec8 5f3f
00000060: b0bc d63e 518b 0d3f a5e6 733f 9021 143d
00000070: 34ad 3d3e 9030 bf3e 1236 9c3e 9497 6e3f
00000080: cc21 343e a027 8a3e cc4b 1a3e 50ec 013d
00000090: f81f 553e 4f07 6e3f af1d 393f c009 3e3f
000000a0: 52bb 063f 8c81 793e d8a7 153f 10cb 073d
000000b0: cc0b 0e3e 740c 783e 93c2 503f 930c 4b3f
000000c0: 1c77 8e3e 4ec3 f63e 20dd 513f c13f 7f3f
000000d0: 09cd 323f b94a 113f 7fd2 553f 8088 523e
000000e0: 1fda 173f 5016 e63d d023 1d3e 5c82 773e
000000f0: a3ea 393f fe79 333f 2cb7 503e 72ab 263f

encoder.0.1.bias f4 [64]
0.0 0.0 0.0 0.0 0.0 0.0 0.0 0.0
0.0 0.0 0.0 0.0 0.0 0.0 0.0 0.0
0.0 0.0 0.0 0.0 0.0 0.0 0.0 0.0
0.0 0.0 0.0 0.0 0.0 0.0 0.0 0.0
0.0 0.0 0.0 0.0 0.0 0.0 0.0 0.0
0.0 0.0 0.0 0.0 0.0 0.0 0.0 0.0
0.0 0.0 0.0 0.0 0.0 0.0 0.0 0.0
0.0 0.0 0.0 0.0 0.0 0.0 0.0 0.0
00000000: 0000 0000 0000 0000 0000 0000 0000 0000
00000010: 0000 0000 0000 0000 0000 0000 0000 0000
00000020: 0000 0000 0000 0000 0000 0000 0000 0000
00000030: 0000 0000 0000 0000 0000 0000 0000 0000
00000040: 0000 0000 0000 0000 0000 0000 0000 0000
00000050: 0000 0000 0000 0000 0000 0000 0000 0000
00000060: 0000 0000 0000 0000 0000 0000 0000 0000
00000070: 0000 0000 0000 0000 0000 0000 0000 0000
00000080: 0000 0000 0000 0000 0000 0000 0000 0000
00000090: 0000 0000 0000 0000 0000 0000 0000 0000
000000a0: 0000 0000 0000 0000 0000 0000 0000 0000
000000b0: 0000 0000 0000 0000 0000 0000 0000 0000
000000c0: 0000 0000 0000 0000 0000 0000 0000 0000
000000d0: 0000 0000 0000 0000 0000 0000 0000 0000
000000e0: 0000 0000 0000 0000 0000 0000 0000 0000
000000f0: 0000 0000 0000 0000 0000 0000 0000 0000

encoder.0.1.running_mean f4 [64]
-0.05553817 -0.022703705 0.028526748 0.019657476 0.016649816 0.024479803 0.003091752 0.065780155
-0.08136861 0.049663235 0.07585828 0.020904757 0.016881466 -0.04331975 0.0010277568 -0.0077032014
0.015853422 0.01917413 -0.039097264 0.01690477 -0.00014041488 0.059349425 -0.01904626 0.026518222
0.00017108922 0.05124873 0.017102718 0.00944362 -0.014585237 -0.007380406 -0.109754 -0.048194174
-0.0026667814 0.018799014 0.023055034 -0.09323304 0.007056308 -0.021043163 -0.0073448815 -0.015239336
0.050940882 0.06504117 -0.00853488 -0.039481707 0.06807444 0.010153634 0.0018015502 -0.04498599
-0.030163953 0.011887475 -0.012216523 -0.028423946 0.109729335 0.021075048 0.03200842 0.0022332417
-0.024789503 0.019757444 -0.028351236 -0.025996396 0.019334283 -0.053734094 -0.00030705705 0.027437765
00000000: fe7b 63bd 1ffd b9bc edb0 e93c b708 a13c
00000010: 3265 883c de89 c83c fe9e 4a3b bfb7 863d
00000020: 96a4 a6bd ad6b 4b3d 965b 9b3d 7440 ab3c
00000030: 004b 8a3c 0d70 31bd ccb5 863a 236b fcbb
00000040: 09df 813c 1113 9d3c 7424 20bd df7b 8a3c
00000050: 553c 13b9 6218 733d e706 9cbc be3c d93c
00000060: 6a66 3339 30ea 513d 001b 8c3c 6ab9 1a3c
00000070: ebf6 6ebc 55d7 f1bb b5c6 e0bd 4167 45bd
00000080: 2bc5 2ebb 6400 9a3c e9dd bc3c f7f0 bebd
00000090: 9a38 e73b b662 acbc 55ad f0bb 68ae 79bc
000000a0: 63a7 503d 4e34 853d e2d5 0bbc 92b7 21bd
000000b0: 9d6a 8b3d 6d5b 263c fe21 ec3a 3b43 38bd
000000c0: 651a f7bc afc3 423c d027 48bc 56d9 e8bc
000000d0: c6b9 e03d 94a5 ac3c 431b 033d 945b 123b
000000e0: 5b13 cbbc 5dda a13c da40 e8bc 65f6 d4bc
000000f0: ee62 9e3c 4818 5cbd 80fc a0b9 2ac5 e03c

encoder.0.1.running_var f4 [64]
0.91147906 0.9173916 0.9045854 0.9104662 0.9199047 0.9088628 0.9106324 0.9132641
0.9240258 0.9230992 0.92093855 0.909668 0.9141202 0.90496284 0.91392213 0.90442073
0.90337205 0.9032205 0.91673946 0.90227586 0.90716654 0.9281189 0.91287917 0.92712754
0.9039646 0.90268075 0.90500236 0.9053832 0.90564144 0.90991217 0.9401614 0.9104445
0.9026573 0.91130257 0.9118591 0.97846127 0.90517914 0.9084145 0.91916597 0.9033392
0.91212654 0.94599277 0.9025477 0.9162157 0.918277 0.91202664 0.90883327 0.9030647
0.9229869 0.9015877 0.90466654 0.91301537 0.94393146 0.90298444 0.9173398 0.9131986
0.91840494 0.91435754 0.90893596 0.907186 0.9131501 0.9289375 0.90972996 0.907653
00000000: b156 693f 2dda 6a3f e992 673f 5014 693f
00000010: e07e 6b3f 3cab 683f 341f 693f adcb 693f
00000020: f48c 6c3f 3b50 6c3f a1c2 6b3f 01e0 683f
00000030: c803 6a3f a5ab 673f cdf6 693f 1e88 673f
00000040: 6443 673f 7539 673f 70af 6a3f 8dfb 663f
00000050: 113c 683f 3399 6d3f 73b2 693f 3b58 6d3f
00000060: 396a 673f 1616 673f 3cae 673f 32c7 673f
00000070: 1ed8 673f 01f0 683f 6bae 703f e412 693f
00000080: 8c14 673f 204b 693f 996f 693f 707c 7a3f
00000090: d2b9 673f da8d 683f 764e 6b3f 3d41 673f
000000a0: 2081 693f 952c 723f 5e0d 673f 1d8d 6a3f
000000b0: 3414 6b3f 947a 693f 4ca9 683f 402f 673f
000000c0: df48 6c3f 74ce 663f 3a98 673f 60bb 693f
000000d0: 7ea5 713f fd29 673f c8d6 6a3f 62c7 693f
000000e0: 961c 6b3f 5613 6a3f 07b0 683f 573d 683f
000000f0: 34c4 693f d9ce 6d3f 10e4 683f f25b 683f

encoder.1.0.weight f4 [64, 64, 3, 3]
-0.031968113 -0.012178218 0.013665844 -0.036503546 0.022841591 0.021689486 0.025841895 -0.026564464
0.041500043 -0.024698397 0.04159752 -0.039987102 -0.03712375 0.025591511 0.004354704 0.0024037212
-0.023073267 -0.017478144 -0.012182813 -0.04058981 0.0021653622 0.0073691197 -3.5274774e-05 0.013455432
0.03953546 0.011078503 -0.015253019 -0.01714778 -0.026658565 -0.028884118 -0.00671041 -0.007369399
0.018535938 -0.017809868 0.033216823 -0.029236674 0.00011842325 0.037454996 0.041432712 -0.024135929
0.007422041 0.004921779 -0.019535488 -0.014395621 0.011285584 -0.02897355 0.0068748184 0.018030196
-0.01641959 0.03461005 -0.0027421005 0.018904697 0.041262764 -0.012736183 0.022642005 -0.011917885
-0.0060863756 -0.007061299 -0.00025885925 -0.01574035 0.00976612 0.0015700161 0.026412074 -0.008433554
0.0041783415 -0.015499597 -0.034893908 0.016861137 0.0053315796 -0.016686823 -0.014087707 0.010896724
-0.0075340383 0.027228165 0.0023601316 0.015739027 0.01815401 -0.010223597 0.018027704 0.030747224
0.001917433 0.008153871 0.001513984 0.028848644 -0.017591473 -0.022148743 0.018156398 -0.03626309
0.00066801906 -0.01916213 0.0275014 -0.038793296 0.025263857 0.041223202 0.008430839 -0.0027761124
0.04101458 -0.017806347 -0.0033388995 -0.01824604 -0.005751718 0.00905579 0.0055650584 -0.007869791
-0.041660026 0.0021335036 -0.0012342483 0.0062681995 0.031927098 0.04050039 -0.024720103 -0.0025981031
-0.016694736 -0.0384019 -0.03031913 0.039106715 0.024294216 0.022381295 0.023155969 -0.033103295
0.0043758005 0.038779777 -0.02325358 0.037066434 0.010951605 0.029314313 -0.017849486 0.019209072
-0.03693699 -0.0026456453 0.013897967 0.012495603 0.034867007 0.040944044 0.037906546 0.027974676
0.029294256 -0.0053762384 -0.03233529 -0.015467798 -0.004677687 -0.022516107 0.021298785 0.014626134
0.006722998 0.01006503 0.03660218 0.015176307 -0.036539145 -0.030245032 0.018364567 0.0056783
0.020320486 -0.041613333 -0.03845289 0.0255511 0.026651908 -0.037696294 0.015816052 -0.032535177
0.031554494 0.013074603 0.041199457 -0.041083 -0.04011151 0.028170917 0.036992628 0.02552833
0.027701247 -0.03509464 0.030158903 -0.039339464 0.0093084015 -0.027293116 -0.01654981 0.0073778667
-0.0163825 -0.00659262 -0.03949268 -0.039286386 0.01614013 -0.017636603 -0.025349569 -0.016440928
-0.03406536 -0.033308342 0.02493218 0.02117676 0.005550146 -0.02276082 0.013862539 0.0018718839
-0.029778033 0.008966241 0.03793933 -0.0409836 -0.041433007 0.0053385384 0.031375933 -0.02535374
0.00917238 0.029291052 0.012846515 0.009017114 0.04157192 0.027144697 -0.02343446 0.0036015213
0.02128635 0.03674623 -0.041455537 0.022562724 -0.012097161 -0.040800884 0.009248916 -0.022683904
0.0059046745 -0.027051955 -0.031355377 -0.0035354607 -0.013996905 0.024369363 0.0035924204 0.03252328
0.007808458 -0.01339839 0.028222237 0.0022768788 0.007820487 -0.013400942 0.00014953315 -0.008011382
-0.0035423897 -0.032494973 -0.0002562441 -0.034585178 -0.008963782 0.02414776 -0.02897293 -0.02808549
-0.010174021 -0.011422252 0.0070536435 0.0069173165 0.021129023 -0.028703358 -0.0029404648 0.023303803
0.03604048 -0.0030393936 -0.024109175 0.011977609 0.023728225 -0.026031246 -0.024178892 0.018416595
00000000: fff0 02bd 2687 47bc b4e6 5f3c be84 15bd
00000010: 4a1e bb3c 26ae b13c 62b2 d33c b89d d9bc
00000020: f3fb 293d 4b54 cabc 2962 2a3d 84c9 23bd
00000030: 130f 18bd 4aa5 d13c e8b1 8e3b c087 1d3b
00000040: 2604 bdbc 532e 8fbc 6c9a 47bc 8041 26bd
00000050: c0e8 0d3b a878 f13b 00f4 13b8 2c74 5c3c
00000060: efef 213d 9c82 353c cce7 79bc 8079 8cbc
00000070: 1063 dabc 639e ecbc 00e3 dbbb 007b f1bb
00000080: aed8 973c 00e6 91bc 5d0e 083d c081 efbc
00000090: 005a f838 696a 193d 59b5 293d b6b8 c5bc
000000a0: 9834 f33b e046 a13b e308 a0bc 9cdb 6bbc
000000b0: 2ce7 383c f059 edbc 2846 e13b 10b4 933c
000000c0: 6082 86bc 45c3 0d3d d0b4 33bb 06de 9a3c
000000d0: 2503 293d 6cab 50bc ba7b b93c 3c43 43bc
000000e0: 3870 c7bb 7862 e7bb 80b7 87b9 e8f1 80bc
000000f0: 1402 203c 00c9 cd3a 225e d83c e42c 0abc
00000100: 78ea 883b 06f2 7dbc eaec 0ebd 5e20 8a3c
00000110: 88b4 ae3b ceb2 88bc 20d0 66bc 2c88 323c
00000120: 18e0 f6bb 9a0d df3c 70ac 1a3b 22ef 803c
00000130: b8b7 943c e080 27bc d6ae 933c 9ae1 fb3c
00000140: 6052 fb3a d097 053c e070 c63a fe53 ec3c
00000150: fe1b 90bc 4871 b5bc babc 943c 9b88 14bd
00000160: 001e 2f3a e6f9 9cbc 9e4a e13c b8e5 1ebd
00000170: 26f6 ce3c a9d9 283d 8021 0a3c 70ef 35bb
00000180: e7fe 273d 9ede 91bc 70d1 5abb b878 95bc
00000190: e878 bcbb bc5e 143c 185b b63b 4cf0 00bc
000001a0: b4a3 2abd 40d2 0b3b 80c6 a1ba 7865 cd3b
000001b0: fdc5 023d bde3 253d d081 cabc f044 2abb
000001c0: 66c3 88bc 504b 1dbd d35f f8bc 5d2e 203d
000001d0: aa04 c73c fa58 b73c 96b1 bd3c 5297 07bd
000001e0: e062 8f3b 8bd7 1e3d 4b7e bebc f9d2 173d
000001f0: 5c6e 333c 9224 f03c 1639 92bc 585c 9d3c
00000200: 3e4b 17bd 9062 2dbb 4cb4 633c 5cba 4c3c
00000210: b5d0 0e3d f1b4 273d e543 1b3d 262b e53c
00000220: 82fa ef3c 282b b0bb 0272 04bd a66c 7dbc
00000230: 4847 99bb b373 b8bc ca7a ae3c 74a2 6f3c
00000240: 984c dc3b cce7 243c 2bec 153d 0ca6 783c
00000250: 12aa 15bd 6ec4 f7bc 4a71 963c 0811 ba3b
00000260: 2677 a63c be72 2abd c780 1dbd 8a50 d13c
00000270: 1a55 da3c 6e67 1abd aa90 813c 9b43 05bd
00000280: 493f 013d dc36 563c c3c0 283d a646 28bd
00000290: f74b 24bd b2c6 e63c 9585 173d ca20 d13c
000002a0: baed e23c 66bf 0fbd ce0f f73c 6b22 21bd
000002b0: 4482 183c d095 dfbc 7893 87bc 08c2 f13b
000002c0: 9834 86bc e806 d8bb 14c3 21bd c3ea 20bd
000002d0: 4e38 843c a37a 90bc e6a9 cfbc 20af 86bc
000002e0: 1e88 0bbd 546e 08bd 923e cc3c e27a ad3c
000002f0: 00de b53b e674 babc b41f 633c 005a f53a
00000300: 10f1 f3bc 24e7 123c 4566 1b3d 6bde 27bd
00000310: a8b5 29bd e8ee ae3b 0d84 003d a6b2 cfbc
00000320: c047 163c caf3 ef3c 307a 523c 84bc 133c
00000330: 5147 2a3d 8e5e de3c a0f9 bfbc 8007 6c3b
00000340: b660 ae3c 3783 163d 48cd 29bd 76d5 b83c
00000350: 2c33 46bc d41e 27bd c488 173c 98d3 b9bc
00000360: 007c c13b 109c ddbc 7f6e 00bd 30b3 67bb
00000370: 4653 65bc 42a2 c73c d06e 6b3b 2137 053d
00000380: 18de ff3b ec84 5bbc 5232 e73c b037 153b
00000390: 8021 003c a08f 5bbc 00cc 1c39 2c42 03bc
000003a0: 7027 68bb 7319 05bd 8058 86b9 30a9 0dbd
000003b0: d4dc 12bc 86d1 c53c a358 edbc 8b13 e6bc
000003c0: f0b0 26bc 6624 3bbc 4022 e73b a8aa e23b
000003d0: c616 ad3c 4e23 ebbc d0b4 40bb 9ee7 be3c
000003e0: 2f9f 133d 9030 47bb 9b80 c5bc bc3d 443c
000003f0: b261 c23c 7b3f d5bc d012 c6bc 66de 963c

encoder.1.0.bias f4 [64]
0.0039226077 0.0028913058 0.032475207 -0.015653288 0.024910633 0.023359496 -0.03085981 0.03921062
-0.0038013048 0.010747116 0.00041599944 0.027636286 -0.0038744546 -0.020447224 0.00093540177 0.018827673
-0.005325645 -0.012917286 0.027708326 0.020831808 -0.030737346 0.016052213 0.01666084 -0.0020754673
0.033096526 0.017870527 0.03680562 -0.0076058395 -0.00664765 -0.01319493 0.0076943524 0.01007418
-0.007958304 0.01890156 0.039321844 0.014515262 0.00016918778 -0.04008975 -0.03444254 -0.029258665
-0.014231607 -0.011985093 0.02434456 0.025842238 0.032906193 -0.005631987 -0.022302827 -0.019817546
-0.02630658 0.010935169 0.010931015 0.023620266 0.0027648844 -0.0005031079 0.032692585 0.0131419785
0.0069470145 -0.03648763 -0.021547597 0.018326793 -0.015462017 0.029776167 -0.00081210956 0.0067247264
00000000: 3889 803b 107c 3d3b b904 053d 533b 80bc
00000010: 6211 cc3c 6a5c bf3c b6cd fcbc 519b 203d
00000020: 501f 79bb ac14 303c 801a da39 7e65 e23c
00000030: 90ea 7dbb f080 a7bc c035 753a 7e3c 9a3c
00000040: c082 aebb 06a3 53bc 92fc e23c 78a7 aa3c
00000050: e3cc fbbc ee7f 833c 507c 883c 9004 08bb
00000060: 3990 073d 3665 923c 7dc1 163d 683a f9bb
00000070: 88d4 d9bb 8c2f 58bc e820 fc3b 2c0e 253c
00000080: 8c63 02bc 72d7 9a3c f10f 213d 6cd1 6d3c
00000090: 0068 3139 2635 24bd 9f13 0dbd deaf efbc
000000a0: b02b 69bc 205d 44bc 3e6e c73c 1ab3 d33c
000000b0: a5c8 063d 888c b8bb 6bb4 b6bc 6858 a2bc
000000c0: e680 d7bc 6c29 333c 0018 333c 4a7f c13c
000000d0: 1033 353b 00e3 03ba a9e8 053d 7451 573c
000000e0: c8a3 e33b 0e74 15bd 9684 b0bc 1222 963c
000000f0: 6654 7dbc 26ed f33c c0e3 54ba 185b dc3b

encoder.1.1.weight f4 [64]
0.18302453 0.44593316 0.5643144 0.9259722 0.26143986 0.82031804 0.4364831 0.2625361
0.06460017 0.04124081 0.98830533 0.37530023 0.5249744 0.63555616 0.8398661 0.92673707
0.9055086 0.12955844 0.4198916 0.20413119 0.21432412 0.6186035 0.969324 0.099448025
0.80260223 0.24076664 0.40261286 0.89688545 0.38691485 0.5455279 0.15048373 0.92562044
0.43536508 0.13430476 0.64640516 0.14449131 0.10324633 0.5304596 0.8964218 0.358508
0.73533344 0.9296606 0.83163047 0.23771948 0.44519007 0.34265757 0.09793854 0.5002066
0.87621754 0.9212578 0.54665035 0.6135615 0.28353918 0.8774212 0.29194576 0.1526736
0.57699674 0.7996927 0.04920423 0.95198375 0.67986554 0.14969361 0.39229625 0.93378997
00000000: c86a 3b3e 5a51 e43e e976 103f 840c 6d3f
00000010: 72db 853e 5d00 523f b67a df3e 226b 863e
00000020: 184d 843d 20ec 283d 9401 7d3f 5a27 c03e
00000030: b964 063f cfb3 223f 7701 573f a43e 6d3f
00000040: 69cf 673f f8aa 043e 08fc d63e c407 513e
00000050: c877 5b3e cd5c 1e3f 9e25 783f 68ab cb3d
00000060: 5777 4d3f 888b 763e 4623 ce3e 499a 653f
00000070: b419 c63e b7a7 0b3f 6818 1a3e 76f5 6c3f
00000080: 2ce8 de3e 3087 093e cf7a 253f 88f5 133e
00000090: d072 d33d 33cc 073f e67b 653f 5c8e b73e
000000a0: d03e 3c3f 3dfe 6d3f bce5 543f bc6c 733e
000000b0: f4ef e33e d070 af3e 0094 c83d 8a0d 003f
000000c0: cb4f 603f 8dd7 6b3f 47f1 0b3f 5e12 1d3f
000000d0: 0c2c 913e ad9e 603f ea79 953e 7856 1c3e
000000e0: 0fb6 133f a9b8 4c3f 608a 493d 35b5 733f
000000f0: ab0b 2e3f 4849 193e 0edb c83e dc0c 6f3f

encoder.1.1.bias f4 [64]
0.0 0.0 0.0 0.0 0.0 0.0 0.0 0.0
0.0 0.0 0.0 0.0 0.0 0.0 0.0 0.0
0.0 0.0 0.0 0.0 0.0 0.0 0.0 0.0
0.0 0.0 0.0 0.0 0.0 0.0 0.0 0.0
0.0 0.0 0.0 0.0 0.0 0.0 0.0 0.0
0.0 0.0 0.0 0.0 0.0 0.0 0.0 0.0
0.0 0.0 0.0 0.0 0.0 0.0 0.0 0.0
0.0 0.0 0.0 0.0 0.0 0.0 0.0 0.0
00000000: 0000 0000 0000 0000 0000 0000 0000 0000
00000010: 0000 0000 0000 0000 0000 0000 0000 0000
00000020: 0000 0000 0000 0000 0000 0000 0000 0000
00000030: 0000 0000 0000 0000 0000 0000 0000 0000
00000040: 0000 0000 0000 0000 0000 0000 0000 0000
00000050: 0000 0000 0000 0000 0000 0000 0000 0000
00000060: 0000 0000 0000 0000 0000 0000 0000 0000
00000070: 0000 0000 0000 0000 0000 0000 0000 0000
00000080: 0000 0000 0000 0000 0000 0000 0000 0000
00000090: 0000 0000 0000 0000 0000 0000 0000 0000
000000a0: 0000 0000 0000 0000 0000 0000 0000 0000
000000b0: 0000 0000 0000 0000 0000 0000 0000 0000
000000c0: 0000 0000 0000 0000 0000 0000 0000 0000
000000d0: 0000 0000 0000 0000 0000 0000 0000 0000
000000e0: 0000 0000 0000 0000 0000 0000 0000 0000
000000f0: 0000 0000 0000 0000 0000 0000 0000 0000

encoder.1.1.running_mean f4 [64]
-0.024180738 0.01595614 -0.0057173083 0.0039554923 -0.018722177 0.0113300495 -0.001206162 6.6468447e-06
0.012072315 0.0065719537 0.016953807 0.017250381 0.0029790439 0.039470807 0.010258799 -0.014147565
-0.013011192 0.025041893 0.008998239 0.02415121 -0.008922683 -0.011540238 0.0129428 -0.0061128726
-0.01973325 -0.0065910765 0.011128833 0.021385554 -0.0048651234 0.0045706728 -0.008491413 -0.007384176
-0.005394931 0.009788391 0.006329272 0.0063077845 -0.025889317 0.0006277985 -0.0003606382 0.0011817173
0.0018127566 -0.0075936406 0.0012395394 0.036239 0.02672731 0.003033958 0.012619575 0.024555843
-0.009891394 0.0010508115 -0.0075643575 0.0064466135 -0.0013205259 -0.0020482724 -0.00078924035 0.02415383
0.011174814 -0.008321696 -0.04247827 -0.018936044 -0.022835812 0.00039850743 -0.020135647 0.008408455
00000000: af16 c6bc 73b6 823c 4258 bbbb 139d 813b
00000010: 405f 99bc aca1 393c 1518 9eba f607 df36
00000020: f6ca 453c 8b59 d73b b6e2 8a3c ac50 8d3c
00000030: 103c 433b 24ac 213d 8614 283c 30cb 67bc
00000040: e52c 55bc a824 cd3c 5a6d 133c c2d8 c53c
00000050: 7230 12bc 4413 3dbc 0a0e 543c 7e4e c8bb
00000060: a0a7 a1bc f5f9 d7bb b555 363c c230 af3c
00000070: 9d6b 9fbb 95c5 953b 911f 0bbc f5f6 f1bb
00000080: f6c7 b0bb 7d5f 203c c865 cf3b 88b1 ce3b
00000090: d515 d4bc d892 243a 0a14 bdb9 dae3 9a3a
000000a0: 059a ed3a 13d4 f8bb 0a78 a23a 586f 143d
000000b0: 3bf3 da3c 5ed5 463b 55c2 4e3c 5629 c93c
000000c0: 830f 22bc 62bb 893a 6ede f7bb 1d3e d33b
000000d0: 7f15 adba 4f3c 06bb 06e5 4eba 41de c53c
000000e0: 9116 373c b957 08bc b2fd 2dbd c31f 9bbc
000000f0: 2b12 bbbc c3ee d039 83f3 a4bc 9ec3 093c

encoder.1.1.running_var f4 [64]
0.9049702 0.9048019 0.904334 0.9041294 0.9067781 0.9073422 0.9057177 0.9027506
0.90490025 0.9095489 0.91483617 0.9018261 0.9044057 0.91301155 0.90566635 0.9051262
0.90333164 0.90981436 0.90881395 0.90520835 0.90405035 0.9121733 0.91058654 0.903401
0.91201127 0.90243167 0.9044351 0.9035555 0.903055 0.9053051 0.9037707 0.9097329
0.9051029 0.9069331 0.90886855 0.90488577 0.90929 0.90809554 0.90428936 0.90577036
0.9021706 0.9037364 0.90457565 0.91131 0.90460813 0.90530443 0.90353715 0.90492475
0.9033778 0.90454507 0.90400344 0.90587956 0.9058095 0.90491253 0.9042991 0.90829813
0.9044827 0.9059117 0.9247817 0.9044325 0.9128415 0.9043755 0.9096415 0.9053036
00000000: 21ac 673f 19a1 673f 6f82 673f 0675 673f
00000010: 9c22 683f 9447 683f 1ddd 673f aa1a 673f
00000020: 8ba7 673f 32d8 683f b432 6a3f 13de 663f
00000030: 2287 673f 20bb 693f c0d9 673f 5ab6 673f
00000040: be40 673f 98e9 683f 08a8 683f bcbb 673f
00000050: d86f 673f 3084 693f 331c 693f 4a45 673f
00000060: 9279 693f c305 673f 0f89 673f 6a4f 673f
00000070: 9d2e 673f 13c2 673f 845d 673f 41e4 683f
00000080: d3b4 673f c52c 683f 9cab 683f 98a6 673f
00000090: 3bc7 683f f378 683f 827f 673f 91e0 673f
000000a0: a7f4 663f 455b 673f 4592 673f 9d4b 693f
000000b0: 6694 673f 08c2 673f 364e 673f 26a9 673f
000000c0: c443 673f 4490 673f c56c 673f b9e7 673f
000000d0: 22e3 673f 59a8 673f 2580 673f 3a86 683f
000000e0: 2e8c 673f d4e9 673f 7ebe 6c3f e388 673f
000000f0: fbaf 693f 2785 673f 44de 683f fac1 673f

encoder.2.0.weight f4 [64, 64, 3, 3]
0.028272633 -0.021755602 -0.018713292 -0.012454098 -0.0063311346 0.009390097 0.025402222 0.015763205
-0.03451602 -0.020031959 0.013554379 0.034617353 0.021822724 0.014347106 0.006019164 -0.038071718
-0.015633842 0.030299146 0.004880473 0.0010235012 -0.025509259 0.012476813 -0.010113265 0.014447391
0.012293715 -0.02630648 -0.01463831 0.03839572 0.020886634 -0.018474787 0.017819729 -0.013572222
-0.008820493 -0.033137545 -0.005792517 -0.0118875615 0.027455647 -0.0025718473 -0.037266143 0.00775918
0.02150863 -0.021119729 -0.013353497 -0.027611911 -0.029114118 -0.033829864 0.03158811 0.007584002
-0.0018886887 0.025002126 0.0046683885 0.014301214 -0.037452728 0.02816609 -0.036599986 0.03492121
-0.009960681 0.02199978 0.012273472 0.009364206 -0.009505466 -0.0050733984 0.035762597 -0.035979256
-0.007873833 0.0073719285 -0.022202324 0.020205408 -0.012448907 -0.005848836 0.02687763 0.029600311
0.031539205 -0.0045415126 0.0063800104 -0.03130787 -0.03704351 -0.03191982 -0.039518587 0.015656453
-0.008138288 -0.03889562 0.0064507127 -0.03674455 0.003484901 0.005857751 0.013193805 0.005793821
-0.02355752 -0.015766513 -0.04076956 3.8992614e-05 -0.0024962574 -0.036372267 0.015063658 0.032186147
0.038931165 0.04101379 -0.0024275668 -0.02881444 -0.028103512 0.010717273 -0.018367391 0.0035858005
-0.039369486 0.008129399 -0.0050708614 -0.027310302 -0.0053012557 -0.011804473 0.006164968 -0.04108365
-0.00026743114 0.033923138 -0.01467751 -0.01749996 -0.0064657815 -0.0016607195 -0.031412497 -0.033789113
0.032198522 -0.040055223 -0.013706148 -0.012987262 0.008543398 0.021434065 -0.023007374 0.005472198
-0.025081282 -0.020257425 -0.01146025 -0.019798374 0.0066943727 0.023692805 -0.011461765 0.028046612
-0.012458131 0.031188648 0.031642865 0.02745122 -0.037632763 0.037834402 -0.004122585 -0.02584749
0.025756579 -0.037750177 0.006895382 9.178743e-05 0.009284738 0.038724054 -0.02382431 -0.023845684
0.0033819266 0.0101891905 -0.032097526 0.023982633 -0.009214412 -0.029470166 -0.005774323 -0.033455722
0.019771684 -0.035764895 0.013848748 -0.022077426 0.019545 0.030137721 -0.0045301877 0.02271447
0.032406967 0.040187154 0.036141176 -0.006716568 -0.03723575 0.018882204 -0.00086646155 -0.005348284
0.01610345 0.026072916 -0.035005108 -0.0043860488 -0.02792276 0.037501547 -0.040909477 0.004939031
0.023617778 -0.036460735 0.018030733 0.017127384 0.0076720417 0.0025620647 -0.038579714 0.01805428
0.03692301 0.014580775 -0.021714106 0.007000074 -0.013674429 -0.038472638 0.003280148 0.039698455
-0.021147907 -0.020987188 -0.026857138 -0.0123402625 0.04002228 0.016871963 0.013066914 0.037475605
0.019878715 -0.008908227 -0.034746587 0.03052606 -0.014604798 0.038324375 0.012753148 -0.016999682
0.039662603 0.01957433 0.027731437 -0.036935836 -0.01842922 0.023105484 0.010334905 0.03790975
0.02006708 0.012555946 0.030381594 0.021264073 0.01712887 0.040969525 0.015836138 0.02871788
-0.034627497 0.010696489 0.001372423 0.0016108863 -0.03873775 -0.027210644 0.01915221 0.029834066
-0.012183925 0.0306529 0.016843691 0.028912459 -0.04136928 -0.018085375 0.0077291317 0.030375969
0.02375703 -0.032026943 -0.026147943 -0.022135219 -0.01258963 0.0035977177 -0.026786134 0.028079782
00000000: 029c e73c ce38 b2bc 9e4c 99bc 460c 4cbc
00000010: 6875 cfbb ecd8 193c 5218 d03c d621 813c
00000020: ac60 0dbd 101a a4bc 3013 5e3c edca 0d3d
00000030: 92c5 b23c 2010 6b3c 683c c53b 17f1 1bbd
00000040: 8b12 80bc ea35 f83c 60ec 9f3b 0027 863a
00000050: cbf8 d0bc 8c6b 4c3c 1cb2 25bc c0b4 6c3c
00000060: 946b 493c b080 d7bc 86d5 6fbc d544 1d3d
00000070: 721a ab3c 7058 97bc aefa 913c 065e 5ebc
00000080: d483 10bc 3cbb 07bd 28cf bdbb 0cc4 42bc
00000090: aaea e03c 708c 28bb 62a4 18bd b840 fe3b
000000a0: de32 b03c 4803 adbc a0c8 5abc 6032 e2bc
000000b0: bb80 eebc 2f91 0abd 8962 013d 3883 f83b
000000c0: e08d f7ba 42d1 cc3c 48f9 983b a44f 6a3c
000000d0: 0868 19bd 92bc e63c dee9 15bd 8b09 0f3d
000000e0: 2032 23bc e238 b43c ac16 493c 546c 193c
000000f0: d0bc 1bbc c03e a6bb cd7b 123d fc5e 13bd
00000100: 4001 01bc 3890 f13b a6e1 b5bc d085 a53c
00000110: 80f6 4bbc 98a7 bfbb 7a2e dc3c 5a7c f23c
00000120: 412f 013d f8d0 94bb 680f d13b ae3c 00bd
00000130: efba 17bd 5bbe 02bd 3ede 21bd f641 803c
00000140: 7456 05bc 0351 1fbd 8060 d33b 7481 16bd
00000150: f062 643b 60f2 bf3b d42a 583c 18da bd3b
00000160: b3fb c0bc c628 81bc fbfd 26bd 008c 2338
00000170: 4098 23bb 16fb 14bd 90cd 763c 9fd5 033d
00000180: 4976 1f3d 13fe 273d d017 1fbb 430c ecbc
00000190: 5639 e6bc 8097 2f3c 3677 96bc c0ff 6a3b
000001a0: e641 21bd 2c31 053c 7829 a6bb dbb9 dfbc
000001b0: 28b6 adbb 8c67 41bc 8003 ca3b 5447 28bd
000001c0: 0036 8cb9 fdf2 0a3d f079 70bc 135c 8fbc
000001d0: e8de d3bb 80ac d9ba 64aa 00bd 7466 0abd
000001e0: 99e2 033d f210 24bd c08f 60bc 86c8 54bc
000001f0: 9cf9 0b3c 7e96 af3c f679 bcbc 2050 b33b
00000200: 4377 cdbc e6f2 a5bc c6c3 3bbc 3330 a2bc
00000210: 785c db3b 6a17 c23c 20ca 3bbc 02c2 e53c
00000220: 301d 4cbc 567f ff3c f39b 013d 62e1 e03c
00000230: d024 1abd 3ff8 1a3d c016 87bb 1ebe d3bc
00000240: 76ff d23c ee9f 1abd a8f2 e13b 007e c038
00000250: 041f 183c 1d9d 1e3d 332b c3bc 0658 c3bc
00000260: 50a3 5d3b 90f0 263c b278 03bd 3a77 c43c
00000270: 0cf8 16bc 6b6b f1bc 8836 bdbb de08 09bd
00000280: 3af8 a13c 367e 12bd dce5 623c b8db b4bc
00000290: d61c a03c 62e3 f63c f871 94bb b213 ba3c
000002a0: 2bbd 043d 499b 243d c508 143d a816 dcbb
000002b0: 8484 18bd daae 9a3c 4023 63ba a840 afbb
000002c0: 62eb 833c de96 d53c 8461 0fbd d8b8 8fbb
000002d0: 46be e4bc 399b 193d b290 27bd 98d7 a13b
000002e0: 127a c13c da57 15bd 30b5 933c ba4e 8c3c
000002f0: c065 fb3b 50e8 273b c305 1ebd 92e6 933c
00000300: 953c 173d 34e4 6e3c c8e1 b1bc e060 e53b
00000310: b60a 60bc 7c95 1dbd c0f7 563b d99a 223d
00000320: 603e adbc 53ed abbc 8003 dcbc d02e 4abc
00000330: 67ee 233d 1237 8a3c 9c16 563c 0580 193d
00000340: b0d8 a23c d0f3 11bc 7052 0ebd ca11 fa3c
00000350: f648 6fbc 05fa 1c3d 94f2 503c eb42 8bbc
00000360: 4175 223d 585a a03c 0a2d e33c 084a 17bd
00000370: e0f8 96bc b647 bd3c bc53 293c 4147 1b3d
00000380: b863 a43c 74b7 4d3c d2e2 f83c fe31 ae3c
00000390: d851 8c3c a9cf 273d caba 813c c241 eb3c
000003a0: 90d5 0dbd 5440 2f3c e0e2 b33a 6024 d33a
000003b0: 7aab 1ebd dbe8 debc 18e5 9c3c 9266 f43c
000003c0: 169f 47bc ca1b fb3c c8fb 893c d2d9 ec3c
000003d0: d672 29bd c827 94bc a844 fd3b 06d7 f83c
000003e0: 1a9e c23c af2e 03bd 3634 d6bc eb54 b5bc
000003f0: bc44 4ebc b0c7 6b3b 986e dbbc 9207 e63c

encoder.2.0.bias f4 [64]
0.013170827 0.029138554 0.0010408722 0.02218936 0.032196138 -0.021115756 -0.035794906 0.022689711
-0.019556057 0.013538692 -0.035103858 0.032409612 0.04118624 -0.0085827075 0.02029984 -0.03728032
0.009985771 -0.031154832 0.034988675 0.02159315 0.02333774 -0.019725662 -0.02709217 0.009160873
0.022942055 0.013391897 -0.0067182817 0.023281131 0.025222514 -0.010350898 0.015537951 0.016002402
-0.0014418028 -0.017696014 -0.026846096 0.00034530088 -0.028760558 0.020730343 -0.02602173 0.016017724
0.025508653 -0.0060317703 0.038792435 -0.038512163 -0.015430575 0.03326046 0.031029139 -0.017937317
-0.00052772835 0.01949514 0.03566492 0.024044435 -0.035987075 -0.025317391 0.022159915 -0.024807384
-0.02397423 -0.028347861 -0.020054191 0.022625078 -0.041492403 0.0055600964 0.0055805705 -0.037923913
00000000: 74ca 573c fab3 ee3c e06d 883a 76c6 b53c
00000010: 19e0 033d f3fa acbc ae9d 12bd c6df b93c
00000020: 0634 a0bc 64d1 5d3c 10c9 0fbd f1bf 043d
00000030: e7b2 283d 7c9e 0cbc da4b a63c 40b3 18bd
00000040: 5c9b 233c 6b38 ffbc 4950 0f3d 1ee4 b03c
00000050: ca2e bf3c b697 a1bc 66f0 ddbc 7c17 163c
00000060: faf0 bb3c b069 5b3c 0825 dcbb 12b8 be3c
00000070: 729f ce3c d096 29bc e492 7e3c 7817 833c
00000080: e0fa bcba 3bf7 90bc 58ec dbbc 8009 b539
00000090: 439b ebbc aed2 a93c 862b d5bc 9a37 833c
000000a0: 86f7 d03c 28a6 c5bb d1e4 1e3d eebe 1dbd
000000b0: 86d0 7cbc 1f3c 083d d230 fe3c 48f1 92bc
000000c0: 4057 0aba 46b4 9f3c 6115 123d d6f8 c43c
000000d0: 2f67 13bd 6b66 cfbc b688 b53c db38 cbbc
000000e0: 9b65 c4bc c639 e8bc b048 a4bc 3a58 b93c
000000f0: f0f3 29bd 7831 b63b 38dd b63b 1b56 1bbd

encoder.2.1.weight f4 [64]
0.8805545 0.15637827 0.7547086 0.63332707 0.20999146 0.89467597 0.50397056 0.05942905
0.7287281 0.32202488 0.4039942 0.9695478 0.8005025 0.1436674 0.81093335 0.5419259
0.28698736 0.35251427 0.39276433 0.86464524 0.6930616 0.84484315 0.009763122 0.9162951
0.9953551 0.90990317 0.7517726 0.6906229 0.7875221 0.7659783 0.7919446 0.47272295
0.42512506 0.53685504 0.780665 0.3585701 0.041521013 0.76398224 0.9407862 0.9449062
0.64099514 0.15403205 0.88850677 0.7155771 0.16930002 0.9268794 0.16717207 0.35688937
0.6441395 0.30089694 0.6808281 0.1239571 0.9283143 0.98729163 0.31004798 0.908239
0.32729787 0.88004404 0.06309533 0.99311024 0.40073633 0.11479962 0.9133452 0.6468675
00000000: 056c 613f a021 203e 9534 413f b921 223f
00000010: 0008 573e 7c09 653f 3704 013f e06b 733d
00000020: ed8d 3a3f 72e0 a43e 54d8 ce3e 4934 783f
00000030: bbed 4c3f 8c1d 133e 5499 4f3f a8bb 0a3f
00000040: 02f0 923e c07c b43e 6818 c93e 6459 5d3f
00000050: 7c6c 313f a447 583f 80f5 1f3c 5192 6a3f
00000060: 98cf 7e3f 6aef 683f 2b74 403f aacc 303f
00000070: 0c9b 493f 2717 443f e2bc 4a3f be08 f23e
00000080: fea9 d93e 556f 093f a9d9 473f 8096 b73e
00000090: f011 2a3d 5794 433f 5dd7 703f 5fe5 713f
000000a0: 4218 243f 94ba 1d3e 2e75 633f 1030 373f
000000b0: fc5c 2d3e f847 6d3f 282f 2b3e 34ba b63e
000000c0: 54e6 243f 2a0f 9a3e c04a 2e3f 38dd fd3d
000000d0: 02a6 6d3f 25bf 7c3f 9cbe 9e3e 5a82 683f
000000e0: 9693 a73e 914a 613f 2038 813d 793c 7e3f
000000f0: 502d cd3e 101c eb3d fed0 693f 1c99 253f

encoder.2.1.bias f4 [64]
0.0 0.0 0.0 0.0 0.0 0.0 0.0 0.0
0.0 0.0 0.0 0.0 0.0 0.0 0.0 0.0
0.0 0.0 0.0 0.0 0.0 0.0 0.0 0.0
0.0 0.0 0.0 0.0 0.0 0.0 0.0 0.0
0.0 0.0 0.0 0.0 0.0 0.0 0.0 0.0
0.0 0.0 0.0 0.0 0.0 0.0 0.0 0.0
0.0 0.0 0.0 0.0 0.0 0.0 0.0 0.0
0.0 0.0 0.0 0.0 0.0 0.0 0.0 0.0
00000000: 0000 0000 0000 0000 0000 0000 0000 0000
00000010: 0000 0000 0000 0000 0000 0000 0000 0000
00000020: 0000 0000 0000 0000 0000 0000 0000 0000
00000030: 0000 0000 0000 0000 0000 0000 0000 0000
00000040: 0000 0000 0000 0000 0000 0000 0000 0000
00000050: 0000 0000 0000 0000 0000 0000 0000 0000
00000060: 0000 0000 0000 0000 0000 0000 0000 0000
00000070: 0000 0000 0000 0000 0000 0000 0000 0000
00000080: 0000 0000 0000 0000 0000 0000 0000 0000
00000090: 0000 0000 0000 0000 0000 0000 0000 0000
000000a0: 0000 0000 0000 0000 0000 0000 0000 0000
000000b0: 0000 0000 0000 0000 0000 0000 0000 0000
000000c0: 0000 0000 0000 0000 0000 0000 0000 0000
000000d0: 0000 0000 0000 0000 0000 0000 0000 0000
000000e0: 0000 0000 0000 0000 0000 0000 0000 0000
000000f0: 0000 0000 0000 0000 0000 0000 0000 0000

encoder.2.1.running_mean f4 [64]
-0.014444856 -0.005687864 -0.0036895503 0.011623007 -0.0032354132 0.0046481513 0.019770976 0.01907904
0.0059297523 -0.0029267306 0.021498764 -0.0013384275 -0.027446693 -0.035305943 0.01741011 -0.04293733
0.006252571 0.018370327 0.0010797649 -0.043523673 0.022650689 -0.022557493 0.017164258 -0.006380331
0.004952609 0.02457517 0.002271269 0.020705992 0.0110378945 -0.02862444 0.016797898 0.03164592
0.0018144555 -0.025488023 -0.030729717 0.01170558 -0.0065569207 5.4415425e-05 -0.007642735 -0.0075042695
0.009744253 0.0027908958 -0.020133294 -0.031100288 0.009542314 0.005975561 -0.022806365 0.010245271
-0.007788102 0.0026300184 0.023537291 0.017231168 -0.01554918 0.017580876 -0.04688316 -0.009206544
0.01018139 -0.01068673 -0.031775046 0.009921248 -0.0012156207 0.03627213 0.026252737 -0.02351181
00000000: 1eaa 6cbc 4361 babb 62cc 71bb 6d6e 3e3c
00000010: 3a09 54bb 854f 983b bef6 a13c a64b 9c3c
00000020: 5e4e c23b 64ce 3fbb 2d1e b03c 2d6e afba
00000030: e3d7 e0bc f79c 10bd a69f 8e3c 0edf 2fbd
00000040: 5ee2 cc3b 5e7d 963c e686 8d3a e145 32bd
00000050: f08d b93c 7eca b8bc 0f9c 8c3c 1812 d1bb
00000060: 7f49 a23b de51 c93c 92d9 143b 9d9f a93c
00000070: 49d8 343c cd7d eabc bf9b 893c 279f 013d
00000080: 06d3 ed3a 42cc d0bc e3bc fbbc c3c8 3f3c
00000090: 70db d6bb 1e3c 6438 e86f fabb 60e6 f5bb
000000a0: 5ca6 1f3c 76e7 363b 94ee a4bc 08c6 febc
000000b0: 5e57 1c3c a4ce c33b 6ad4 babc c8db 273c
000000c0: 5633 ffbb 635c 2c3b 47d1 c03c 6128 8d3c
000000d0: fdc1 7ebc c505 903c 8e08 40bd 0bd7 16bc
000000e0: d8cf 263c 6517 2fbc 8d26 02bd bb8c 223c
000000f0: 7655 9fba 1692 143d fb0f d73c d79b c0bc

encoder.2.1.running_var f4 [64]
0.9041912 0.9103757 0.9075415 0.90455365 0.9063768 0.9056081 0.90689266 0.9082808
0.90565574 0.90657836 0.90441215 0.9052821 0.90809494 0.910399 0.9054426 0.9090142
0.90497863 0.91104126 0.90823823 0.9078656 0.90872705 0.90969944 0.9083804 0.905013
0.90528625 0.91032773 0.9065741 0.90607035 0.9063234 0.9040775 0.9041614 0.90428925
0.9074235 0.9121199 0.90855664 0.9133789 0.90567744 0.9064427 0.90532786 0.9059083
0.90589076 0.90511864 0.91388255 0.91377413 0.9081136 0.9049128 0.9058499 0.90564454
0.9060992 0.90501523 0.9101525 0.9083823 0.9048759 0.90705514 0.91550726 0.90700644
0.9075111 0.9077098 0.90591234 0.906741 0.9133056 0.91367775 0.9078246 0.9096065
00000000: 1379 673f 620e 693f a454 683f d490 673f
00000010: 4f08 683f efd5 673f 1e2a 683f 1785 683f
00000020: 0ed9 673f 8515 683f 8e87 673f 91c0 673f
00000030: e978 683f e90f 693f 16cb 673f 28b5 683f
00000040: aeac 673f 003a 693f 4d82 683f e169 683f
00000050: 56a2 683f 10e2 683f 9e8b 683f efae 673f
00000060: d7c0 673f 3d0b 693f 3d15 683f 3af4 673f
00000070: cf04 683f 9f71 673f 1f77 673f 807f 673f
00000080: e84c 683f b180 693f 2b97 683f 33d3 693f
00000090: 7ada 673f a10c 683f 91c3 673f 9be9 673f
000000a0: 75e8 673f dbb5 673f 35f4 693f 1aed 693f
000000b0: 227a 683f 5ea8 673f c7e5 673f 52d8 673f
000000c0: 1ef6 673f 14af 673f c1ff 683f be8b 683f
000000d0: f2a5 673f c434 683f af5e 6a3f 9331 683f
000000e0: a652 683f ab5f 683f dfe9 673f 2e20 683f
000000f0: 65ce 693f c9e6 693f 3167 683f f9db 683f

encoder.3.0.weight f4 [64, 64, 3, 3]
-0.023147196 -0.041582208 0.01154669 0.019803371 -0.032645937 -0.027755737 0.01614714 0.028213281
-0.012416109 -0.0018348396 -0.033188753 0.023959432 0.029618371 0.027540345 -0.0011380911 0.022961874
-0.007979106 -0.001308322 0.0071282946 0.013406947 0.005695224 -0.012209406 -0.02378282 0.028615866
-0.028458094 0.00021098927 -0.010659948 0.038887274 0.024055783 0.014474917 0.0086766 -0.03451349
-0.018437346 0.031514477 0.0010751523 0.005579401 0.026424851 -0.020462137 -0.012185147 -0.0063443147
-0.005881697 0.01791969 -0.011140525 0.014275771 0.01779576 -0.034400247 -0.016337287 0.012591451
0.015429866 -0.012138184 -0.028810095 0.0022429638 0.020238038 -0.028038492 0.03185593 -0.0034175813
0.03455851 0.027907897 -0.034397714 -0.00025172904 -0.020863172 -0.041574873 0.004741136 -0.039283406
-0.023329422 0.023588527 0.03185657 -0.01351301 -0.041622233 -0.0047644824 0.027248275 0.022079173
-0.041587517 -0.04041735 -0.030723076 -0.0059315227 0.006272454 -0.021851465 0.032913525 0.009340465
0.009027887 0.016550064 -0.010069817 0.008381184 -0.018724617 -0.029203042 -0.012186497 0.017727744
-0.034664106 0.014674902 -0.03947229 -0.028138697 -0.0015421845 -0.030309504 -0.0034352392 -0.029867938
0.023915533 0.016260166 0.019876141 -0.0016921461 0.028647963 -0.026610956 0.03452156 0.005524814
0.023109067 0.018623415 -0.030410558 0.00035096332 -0.03862425 0.007316198 -0.02370958 -0.011947295
-0.035117906 -0.0018057562 0.023234595 0.006254878 0.011059832 -0.030233517 0.035380755 -0.0054692067
0.030712131 -0.0041927397 -0.02146558 0.0037166327 0.0004519783 -0.033744074 -0.021782856 -0.001004789
0.0019157231 -0.01671362 -0.015898328 -0.013251793 0.018472094 -0.014587304 -0.03658647 -0.039809674
0.0343407 -0.021181261 0.0024784915 -0.00075529143 -0.026996445 -0.020650622 0.017196078 -0.03402738
0.017595023 0.017828524 -0.0050620437 0.019246522 -0.0034637563 -0.0013072826 -0.034433864 0.009302687
-0.032210886 0.028066058 -0.033867907 -0.006212119 -0.03345731 -0.033581533 -0.0071272254 0.0105472505
-0.023089409 0.040886287 0.027007598 -0.03547911 -0.032615047 0.010439683 -0.015444335 0.020734895
-0.03596902 -0.020198345 0.0061632656 -0.02380471 0.014895219 0.01754452 0.03433222 -0.040705636
-0.030392315 0.026019182 -0.0031568445 0.03599299 -0.03204017 -0.025944144 -0.004578721 -0.027702209
0.013278898 -0.0077564865 -0.013416946 -0.039691277 -0.03544368 0.0359844 0.004664678 0.004099041
0.008368466 0.027190376 0.012585428 -0.026895618 0.038296808 0.0068789907 -0.010872986 -0.041177563
-0.018108621 -0.018896058 -0.0049860626 -0.037607085 0.037789274 -0.007779479 7.241964e-05 0.015238956
-0.03212832 0.02825636 -0.0053899996 0.004249979 -0.01541689 0.03031129 -0.023417791 0.0077929236
-0.013656413 -0.0018231906 -0.025185635 -0.03292684 -0.024173528 -0.00078621134 -0.026230555 -0.03157275
-0.025583526 0.035825018 0.028556611 0.011997912 -0.0023142584 -0.011530623 0.037580717 -0.008023489
-0.024177935 0.026331935 -0.013369575 0.0018994659 -0.038222443 0.018696547 0.030984495 -0.028182179
-0.033765793 -0.041528337 0.016022589 0.0047310777 -0.014155045 -0.011502888 -0.032310553 -0.014201721
-0.008951139 -0.03573899 -0.009179305 -0.003414128 0.013658609 0.032225396 0.028138746 0.009814445
00000000: 309f bdbc 1b52 2abd 542e 3d3c ae3a a23c
00000010: bfb7 05bd 0060 e3bc 0247 843c 8a1f e73c
00000020: f06c 4bbc 007f f0ba eef0 07bd 9246 c43c
00000030: 3aa2 f23c 4a9c e13c 002c 95ba 8a1a bc3c
00000040: ccba 02bc 007c abba 7894 e93b d0a8 5b3c
00000050: 009f ba3b f609 48bc 30d4 c2bc d26b ea3c
00000060: f320 e9bc 003d 5d39 10a7 2ebc 4348 1f3d
00000070: a210 c53c 3428 6d3c 4c28 0e3c 045e 0dbd
00000080: eb09 97bc 5315 013d 20ec 8c3a 68d3 b63b
00000090: ee78 d83c 36a0 a7bc 36a4 47bc f8e3 cfbb
000000a0: 40bb c0bb 50cc 923c c086 36bc ece4 693c
000000b0: 6ac8 913c 46e7 0cbd c6d5 85bc 604c 4e3c
000000c0: 8ccd 7c3c 3cdf 46bc 2603 ecbc b0fe 123b
000000d0: 3eca a53c fbb0 e5bc 5d7b 023d 80f9 5fbb
000000e0: 398d 0d3d 1a9f e43c 9ee4 0cbd 80fa 83b9
000000f0: 3ee9 aabc 6a4a 2abd 885b 9b3b a3e7 20bd
00000100: 581d bfbc ba3c c13c 097c 023d ac65 5dbc
00000110: 137c 2abd 601f 9cbb c637 df3c 62df b43c
00000120: ac57 2abd aa8c 25bd f6ae fbbc 385d c2bb
00000130: 2889 cd3b d801 b3bc 55d0 063d c008 193c
00000140: b4e9 133c 0094 873c e0fb 24bc 3c51 093c
00000150: 5e64 99bc 383b efbc e0a9 47bc c639 913c
00000160: f3fb 0dbd 006f 703c b2ad 21bd 2083 e6bc
00000170: 2023 caba a34b f8bc c021 61bb 9bad f4bc
00000180: 82ea c33c 0a34 853c 4ad3 a23c 00cb ddba
00000190: 22af ea3c 38ff d9bc 7b66 0d3d 8009 b53b
000001a0: 3a4f bd3c 2290 983c 901f f9bc 8001 b839
000001b0: 7634 1ebd b8bc ef3b 983a c2bc 96be 43bc
000001c0: cbd7 0fbd 20af ecba 7a56 be3c b8f5 cc3b
000001d0: 4c34 353c 48ac f7bc 69eb 103d 0837 b3bb
000001e0: 0298 fb3c 4063 89bb 96d8 afbc c092 733b
000001f0: 80f7 ec39 3a37 0abd f671 b2bc 20b3 83ba
00000200: 0019 fb3a 00eb 88bc 363d 82bc 0c1e 59bc
00000210: ca52 973c 96ff 6ebc b2db 15bd 780f 23bd
00000220: d5a8 0c3d 5384 adbc 306e 223b c0fe 45ba
00000230: a627 ddbc 7e2b a9bc cade 8c3c 4b60 0bbd
00000240: 7023 903c 200d 923c 80df a5bb e2aa 9d3c
00000250: 3000 63bb 2059 abba 860a 0dbd 4c6a 183c
00000260: 90ef 03bd caea e53c 13b9 0abd 088f cbbb
00000270: 880a 09bd ca8c 09bd 808b e9bb 60ce 2c3c
00000280: 0026 bdbc 6178 273d 0a3f dd3c 8b52 11bd
00000290: 5b97 05bd 340b 2b3c 3c0a 7dbc 3adc a93c
000002a0: 4054 13bd 0077 a5bc 38f5 c93b 1802 c3bc
000002b0: 140b 743c 86b9 8f3c f19f 0c3d f4ba 26bd
000002c0: 4ef9 f8bc 2e26 d53c 10e3 4ebb 636d 133d
000002d0: 8e3c 03bd d088 d4bc 1809 96bb beef e2bc
000002e0: bc8f 593c 202a febb c0d2 5bbc 5293 22bd
000002f0: 642d 11bd 6164 133d 28da 983b 4051 863b
00000300: e41b 093c 5abe de3c 1c33 4e3c 3354 dcbc
00000310: 1ddd 1c3d 2869 e13b 9c24 32bc cea9 28bd
00000320: 8858 94bc e8cb 9abc 2062 a3bb e309 1abd
00000330: edc8 1a3d 00eb febb 00e0 9738 d0ac 793c
00000340: fc98 03bd e279 e73c 989e b0bb 6843 8b3b
00000350: 2097 7cbc 624f f83c abd6 bfbc c85b ff3b
00000360: 26bf 5fbc 20f8 eeba 1b52 cebc 4bde 06bd
00000370: 9007 c6bc c019 4eba 76e1 d6bc 6e52 01bd
00000380: 8b94 d1bc 41bd 123d 8eef e93c e492 443c
00000390: d0aa 17bb f0ea 3cbc 3dee 193d f474 03bc
000003a0: ce10 c6bc 12b6 d73c 100c 5bbc 80f7 f83a
000003b0: 238f 1cbd 8029 993c 32d3 fd3c 50de e6bc
000003c0: 004e 0abd 9e19 2abd ce41 833c 2807 9b3b
000003d0: 90ea 67bc 9c76 3cbc 1258 04bd 56ae 68bc
000003e0: cca7 12bc 0c63 12bd cc64 16bc 90bf 5fbb
000003f0: 5cc8 5f3c c7fe 033d 3a83 e63c c4cc 203c

encoder.3.0.bias f4 [64]
0.008583296 0.01304226 0.016090292 0.032879997 0.02804323 0.017680567 -0.012242958 -0.028474838
-0.022160139 -0.029696599 -0.025460497 -0.0345816 0.020189121 0.009991661 0.037667487 0.018798064
0.028963301 0.039399434 0.011658955 0.008607388 0.03918608 -0.028666621 0.030567009 0.017647993
0.0014222264 0.013381008 -0.023993507 -0.007942725 -0.014885183 0.0016205907 -0.020810714 0.016949993
0.023050163 -0.017079175 0.0078733 -0.023285344 0.031740237 -0.0390386 -0.026638871 0.020451665
-0.03467956 0.035762478 -0.013871834 0.004984293 0.017448377 -0.0008698702 -0.030806258 0.018344712
0.007815037 0.019988403 -0.012910351 -0.031289797 0.024048213 0.008014154 0.013220962 -0.028031146
0.0059284717 0.002436027 0.041621972 -0.003667917 0.031604845 -0.028298259 0.0028974004 -0.0024539232
00000000: f4a0 0c3c 34af 553c cacf 833c 2dad 063d
00000010: eaba e53c d6d6 903c b096 48bc 1044 e9bc
00000020: 2e89 b5bc 4846 f3bc 8892 d0bc 70a5 0dbd
00000030: a863 a53c 10b4 233c 3949 1a3d 66fe 993c
00000040: 7244 ed3c 4d61 213d 3405 3f3c 0006 0d3c
00000050: 9581 203d 43d6 eabc aa67 fa3c 8692 903c
00000060: 006a ba3a 043c 5b3c 088e c4bc 3422 02bc
00000070: fce0 73bc 006a d43a 3b7b aabc b6da 8a3c
00000080: b2d3 bc3c a0e9 8bbc 04ff 003c e8c0 bebc
00000090: 0d02 023d f0e6 1fbd c339 dabc 408a a73c
000000a0: 280c 0ebd ad7b 123d b046 63bc 4853 a33b
000000b0: e6ef 8e3c 0008 64ba 685d fcbc a647 963c
000000c0: a40a 003c b8be a33c f085 53bc bb29 00bd
000000d0: c200 c53c cc4d 033c bc9c 583c 93a1 e5bc
000000e0: a043 c23b c0a5 1f3b cd7b 2a3d 7061 70bb
000000f0: 1574 013d c0d1 e7bc 50e2 3d3b 00d2 20bb

encoder.3.1.weight f4 [64]
0.08594692 0.6619645 0.013513029 0.026946485 0.2740686 0.5727482 0.5065674 0.4411887
0.53875935 0.3826303 0.056787074 0.7812836 0.10427225 0.86137533 0.512089 0.67218405
0.21479315 0.122383475 0.47316337 0.3735671 0.0055714846 0.52998006 0.20458591 0.7197086
0.57936364 0.4839285 0.7912796 0.21782619 0.37672347 0.30911696 0.4094661 0.07984972
0.91781104 0.3197224 0.121601045 0.8765304 0.009506583 0.19120896 0.38103193 0.06837219
0.9236672 0.90445447 0.9461721 0.18635845 0.9613929 0.7177876 0.49927783 0.9722539
0.874693 0.4517812 0.16889006 0.59676194 0.026289165 0.49307835 0.09085733 0.31077164
0.29863894 0.21103477 0.77570254 0.8204667 0.8382939 0.94954777 0.2034741 0.84780985
00000000: f004 b03d 8176 293f c065 5d3c e0be dc3c
00000010: b852 8c3e a09f 123f 67ae 013f 7ce3 e13e
00000020: 22ec 093f 1ee8 c33e 9099 683d 3402 483f
00000030: b08c d53d 1883 5c3f 4418 033f 4114 2c3f
00000040: bcf2 5b3e 30a4 fa3d 7842 f23e 3044 bf3e
00000050: 0091 b63b c6ac 073f f87e 513e d33e 383f
00000060: 2d51 143f 7ac5 f73e 4d91 4a3f d40d 5f3e
00000070: e6e1 c03e 9444 9e3e 8aa5 d13e 4088 a33d
00000080: aaf5 6a3f a8b2 a33e f809 f93d 4c64 603f
00000090: 80c1 1b3c 48cc 433e 9e16 c33e b806 8c3d
000000a0: 7475 6c3f 548a 673f 5638 723f c0d4 3e3e
000000b0: d81d 763f eec0 373f 58a1 ff3e a2e5 783f
000000c0: e1eb 5f3f de4f e73e 84f1 2c3e 64c5 183f
000000d0: 605c d73c c474 fc3e 6813 ba3d 761d 9f3e
000000e0: 34e7 983e 8019 583e 7194 463f 1b0a 523f
000000f0: 6e9a 563f 9015 733f 845b 503e 110a 593f
